…
2019-09-24 22:01:01.106356: I tensorflow/core/common_runtime/gpu/gpu_device.cc:1115] Created TensorFlow device (/job:localhost/replica:0/task:0/device:GPU:0 with 10421 MB memory) -> physical GPU (device: 0, name: GeForce GTX 1080 Ti, pci bus id: 0000:02:00.0, compute capability: 6.1)
>>>>>>>> Available GPU devices list is here: >>>>>>>>>> ['/device:GPU:0']
__________________________________________________________________________________________________
Layer (type)                    Output Shape         Param #     Connected to                     
==================================================================================================
img (InputLayer)                (None, 256, 256, 1)  0                                            
__________________________________________________________________________________________________
conv2d (Conv2D)                 (None, 256, 256, 48) 432         img[0][0]                        
__________________________________________________________________________________________________
leaky_re_lu (LeakyReLU)         (None, 256, 256, 48) 0           conv2d[0][0]                     
__________________________________________________________________________________________________
conv2d_1 (Conv2D)               (None, 256, 256, 48) 20736       leaky_re_lu[0][0]                
__________________________________________________________________________________________________
leaky_re_lu_1 (LeakyReLU)       (None, 256, 256, 48) 0           conv2d_1[0][0]                   
__________________________________________________________________________________________________
max_pooling2d (MaxPooling2D)    (None, 128, 128, 48) 0           leaky_re_lu_1[0][0]              
__________________________________________________________________________________________________
conv2d_2 (Conv2D)               (None, 128, 128, 48) 20736       max_pooling2d[0][0]              
__________________________________________________________________________________________________
leaky_re_lu_2 (LeakyReLU)       (None, 128, 128, 48) 0           conv2d_2[0][0]                   
__________________________________________________________________________________________________
max_pooling2d_1 (MaxPooling2D)  (None, 64, 64, 48)   0           leaky_re_lu_2[0][0]              
__________________________________________________________________________________________________
conv2d_3 (Conv2D)               (None, 64, 64, 48)   20736       max_pooling2d_1[0][0]            
__________________________________________________________________________________________________
leaky_re_lu_3 (LeakyReLU)       (None, 64, 64, 48)   0           conv2d_3[0][0]                   
__________________________________________________________________________________________________
max_pooling2d_2 (MaxPooling2D)  (None, 32, 32, 48)   0           leaky_re_lu_3[0][0]              
__________________________________________________________________________________________________
conv2d_4 (Conv2D)               (None, 32, 32, 48)   20736       max_pooling2d_2[0][0]            
__________________________________________________________________________________________________
leaky_re_lu_4 (LeakyReLU)       (None, 32, 32, 48)   0           conv2d_4[0][0]                   
__________________________________________________________________________________________________
max_pooling2d_3 (MaxPooling2D)  (None, 16, 16, 48)   0           leaky_re_lu_4[0][0]              
__________________________________________________________________________________________________
conv2d_5 (Conv2D)               (None, 16, 16, 48)   20736       max_pooling2d_3[0][0]            
__________________________________________________________________________________________________
leaky_re_lu_5 (LeakyReLU)       (None, 16, 16, 48)   0           conv2d_5[0][0]                   
__________________________________________________________________________________________________
max_pooling2d_4 (MaxPooling2D)  (None, 8, 8, 48)     0           leaky_re_lu_5[0][0]              
__________________________________________________________________________________________________
conv2d_6 (Conv2D)               (None, 8, 8, 48)     20736       max_pooling2d_4[0][0]            
__________________________________________________________________________________________________
leaky_re_lu_6 (LeakyReLU)       (None, 8, 8, 48)     0           conv2d_6[0][0]                   
__________________________________________________________________________________________________
up_sampling2d (UpSampling2D)    (None, 16, 16, 48)   0           leaky_re_lu_6[0][0]              
__________________________________________________________________________________________________
concatenate (Concatenate)       (None, 16, 16, 96)   0           up_sampling2d[0][0]              
                                                                 max_pooling2d_3[0][0]            
__________________________________________________________________________________________________
conv2d_7 (Conv2D)               (None, 16, 16, 96)   82944       concatenate[0][0]                
__________________________________________________________________________________________________
leaky_re_lu_7 (LeakyReLU)       (None, 16, 16, 96)   0           conv2d_7[0][0]                   
__________________________________________________________________________________________________
conv2d_8 (Conv2D)               (None, 16, 16, 96)   82944       leaky_re_lu_7[0][0]              
__________________________________________________________________________________________________
leaky_re_lu_8 (LeakyReLU)       (None, 16, 16, 96)   0           conv2d_8[0][0]                   
__________________________________________________________________________________________________
up_sampling2d_1 (UpSampling2D)  (None, 32, 32, 96)   0           leaky_re_lu_8[0][0]              
__________________________________________________________________________________________________
concatenate_1 (Concatenate)     (None, 32, 32, 144)  0           up_sampling2d_1[0][0]            
                                                                 max_pooling2d_2[0][0]            
__________________________________________________________________________________________________
conv2d_9 (Conv2D)               (None, 32, 32, 96)   124416      concatenate_1[0][0]              
__________________________________________________________________________________________________
leaky_re_lu_9 (LeakyReLU)       (None, 32, 32, 96)   0           conv2d_9[0][0]                   
__________________________________________________________________________________________________
conv2d_10 (Conv2D)              (None, 32, 32, 96)   82944       leaky_re_lu_9[0][0]              
__________________________________________________________________________________________________
leaky_re_lu_10 (LeakyReLU)      (None, 32, 32, 96)   0           conv2d_10[0][0]                  
__________________________________________________________________________________________________
up_sampling2d_2 (UpSampling2D)  (None, 64, 64, 96)   0           leaky_re_lu_10[0][0]             
__________________________________________________________________________________________________
concatenate_2 (Concatenate)     (None, 64, 64, 144)  0           up_sampling2d_2[0][0]            
                                                                 max_pooling2d_1[0][0]            
__________________________________________________________________________________________________
conv2d_11 (Conv2D)              (None, 64, 64, 96)   124416      concatenate_2[0][0]              
__________________________________________________________________________________________________
leaky_re_lu_11 (LeakyReLU)      (None, 64, 64, 96)   0           conv2d_11[0][0]                  
__________________________________________________________________________________________________
conv2d_12 (Conv2D)              (None, 64, 64, 96)   82944       leaky_re_lu_11[0][0]             
__________________________________________________________________________________________________
leaky_re_lu_12 (LeakyReLU)      (None, 64, 64, 96)   0           conv2d_12[0][0]                  
__________________________________________________________________________________________________
up_sampling2d_3 (UpSampling2D)  (None, 128, 128, 96) 0           leaky_re_lu_12[0][0]             
__________________________________________________________________________________________________
concatenate_3 (Concatenate)     (None, 128, 128, 144 0           up_sampling2d_3[0][0]            
                                                                 max_pooling2d[0][0]              
__________________________________________________________________________________________________
conv2d_13 (Conv2D)              (None, 128, 128, 96) 124416      concatenate_3[0][0]              
__________________________________________________________________________________________________
leaky_re_lu_13 (LeakyReLU)      (None, 128, 128, 96) 0           conv2d_13[0][0]                  
__________________________________________________________________________________________________
conv2d_14 (Conv2D)              (None, 128, 128, 96) 82944       leaky_re_lu_13[0][0]             
__________________________________________________________________________________________________
leaky_re_lu_14 (LeakyReLU)      (None, 128, 128, 96) 0           conv2d_14[0][0]                  
__________________________________________________________________________________________________
up_sampling2d_4 (UpSampling2D)  (None, 256, 256, 96) 0           leaky_re_lu_14[0][0]             
__________________________________________________________________________________________________
concatenate_4 (Concatenate)     (None, 256, 256, 97) 0           up_sampling2d_4[0][0]            
                                                                 img[0][0]                        
__________________________________________________________________________________________________
conv2d_15 (Conv2D)              (None, 256, 256, 64) 55872       concatenate_4[0][0]              
__________________________________________________________________________________________________
leaky_re_lu_15 (LeakyReLU)      (None, 256, 256, 64) 0           conv2d_15[0][0]                  
__________________________________________________________________________________________________
conv2d_16 (Conv2D)              (None, 256, 256, 32) 18432       leaky_re_lu_15[0][0]             
__________________________________________________________________________________________________
leaky_re_lu_16 (LeakyReLU)      (None, 256, 256, 32) 0           conv2d_16[0][0]                  
__________________________________________________________________________________________________
conv2d_17 (Conv2D)              (None, 256, 256, 1)  288         leaky_re_lu_16[0][0]             
__________________________________________________________________________________________________
activation (Activation)         (None, 256, 256, 1)  0           conv2d_17[0][0]                  
==================================================================================================
Total params: 987,408
Trainable params: 987,408
Non-trainable params: 0
__________________________________________________________________________________________________
>>>>>>>  Model summary is here >>>>>> None
>>>>>>> Memory used in the Model: (GBytes) >>>>>>>>>> 0.819
…
